backend/models/convnet.pt (torch, 35913 bytes, 8 tensors)

net.0.weight f4 [6, 1, 5, 5]
000000 e3 2c 96 3e ea a8 21 bf 9e a4 30 3e c8 2c d6 3e
       0.2933112 -0.6314837 0.17250296 0.4183104
000010 f4 18 14 be f0 23 e3 3e be 2a 80 be 64 6a 82 3e
       -0.14462644 0.44363356 -0.2503261 0.25471795
000020 c1 92 28 3d 92 7e 94 3e ef d4 62 3b ea c2 62 be
       0.04115558 0.29002815 0.0034611782 -0.22144666
000030 22 e5 4e 3d 19 51 01 3f f2 9d 00 3f 58 3e 84 be
       0.050511487 0.5051437 0.50241005 -0.25828815
000040 ce 8b a5 3c f5 5a 93 3e e8 5e 92 3d 4d 75 17 be
       0.020208266 0.28780332 0.07147008 -0.1479084
000050 ac db da 3e 43 20 9a 3e 3d 49 ce 3d 0d c4 2d bf
       0.4274572 0.3010274 0.10072563 -0.67877275
000060 61 da 81 3e 2e cb 35 3d 39 6b d1 3e d0 98 2c be
       0.25361922 0.04438322 0.40902117 -0.16855168
000070 ee 82 22 bf a2 0b 75 bd 67 5c e9 3c 14 49 0f 3f
       -0.6348103 -0.059825547 0.028486444 0.55970883
000080 46 c3 d4 be 17 92 09 bf 02 9a 4c be 16 66 74 bc
       -0.41555232 -0.5373854 -0.19980624 -0.014916917
000090 13 43 18 3d 87 33 ff 3d 07 ed 98 3e 41 7c b8 be
       0.037173342 0.12461 0.29868338 -0.36032298
0000a0 ca 6f 03 bf 3a fd 4d bd 05 f1 71 38 10 65 62 be
       -0.5134245 -0.050290324 5.7683344e-05 -0.22108865
0000b0 f1 5f 93 3d ef 4b 33 be 51 6e d9 3e ea 13 52 be
       0.07196034 -0.17509435 0.42466977 -0.20515409
0000c0 ce d9 a4 be 47 a6 d2 bd 5d 1c 4e be 85 0e 32 3e
       -0.32197422 -0.10285621 -0.20128007 0.17388351
0000d0 c3 6b a3 bd 6d dc a2 3e 9e 17 81 be f5 ff 4a 3d
       -0.07979538 0.31808797 -0.2521333 0.049560506
0000e0 19 96 23 3f 46 93 11 3e d7 1c 82 3e d5 f5 d5 3e
       0.63900906 0.14216337 0.25412628 0.41789117
0000f0 32 b7 a9 3e 0f 14 1a 3c 2f b4 20 3f 53 dc 23 3e
       0.3314758 0.009404196 0.6277494 0.16002016
000100 8a 53 c9 be 5f db e5 3d b9 10 00 be 20 75 45 3e
       -0.39321548 0.11223482 -0.12506379 0.19282961
000110 d1 95 43 be 01 6a c8 be 5b 2b b0 be fe cd 94 3d
       -0.19100119 -0.39143375 -0.34408078 0.072658524
000120 6f 3b 8f 3e 5e 6a b4 be 37 7f 93 3e b6 60 c2 be
       0.27975032 -0.35237402 0.28807995 -0.3796441
000130 1c 50 54 3c 61 10 f8 3d f6 fd e3 bd d9 83 8c 3e
       0.012958553 0.12112499 -0.111324236 0.27444342
000140 d6 63 95 be 0d a7 6f 3c 02 c8 24 3f b3 a4 da 3e
       -0.2917773 0.01462723 0.6436769 0.4270378
000150 a6 c0 f6 3e 26 b2 a3 be 8a 90 da bb b7 4c a4 bd
       0.48193854 -0.31971854 -0.0066700624 -0.08022445
000160 a5 fe c0 3d 98 10 1d 3e a4 9f cc be f6 62 1e 3d
       0.094235696 0.15338361 -0.39965546 0.038668595
000170 77 e7 05 bf c4 45 23 3d 0f 3b bd 3e 55 aa 0b bf
       -0.5230631 0.039861456 0.3695912 -0.5455678
000180 4a dc 8d be 9e 6d c4 3e 33 56 81 be 02 06 da 3e
       -0.2770713 0.3836488 -0.25261077 0.4258271
000190 e7 d9 81 3e c5 95 31 be 88 82 86 be c5 b2 8e be
       0.2536156 -0.17342289 -0.26271462 -0.27870765
0001a0 45 95 b4 3e 0d 61 16 be 47 80 86 3d 69 0d 4f be
       0.35270134 -0.1468546 0.06567436 -0.2021996
0001b0 c1 68 1c be f5 a5 b4 3e c8 1b f5 3e 42 b8 88 be
       -0.15274335 0.35282865 0.47872758 -0.26703078
0001c0 4d da 91 3e d0 d1 9d 3e 53 fa 03 3f 27 e2 92 bc
       0.28486863 0.30824137 0.5155384 -0.017930103
0001d0 89 d1 6c 3d 1c 69 8e 3c eb 9c 22 3f e5 c0 a9 3e
       0.057817016 0.017384104 0.6352069 0.3315498
0001e0 c4 98 39 3e 80 d8 fb be e8 36 6e 3e 52 71 7e be
       0.18124682 -0.49188614 0.23263133 -0.24847916
0001f0 45 be 47 3e 3f 9e 87 3c e8 e2 17 bf b1 cb a6 3e
       0.19506176 0.01655495 -0.59330606 0.3257728
000200 a4 b9 5f be 2c 90 84 3e 73 85 15 3f e2 a9 b1 3e
       -0.2184816 0.25891244 0.5840675 0.34699923
000210 37 e6 c9 3e 67 f5 01 bf 0c 02 66 be 8e ce ec 3e
       0.39433452 -0.5076508 -0.22461718 0.4625134
000220 ec a5 82 bd 5b 5f a3 be 62 0a d1 3e dd 25 9d be
       -0.06379303 -0.31908688 0.40828234 -0.3069295
000230 7e e9 85 be b0 0b 5d be 15 c7 eb 3d 35 52 61 3e
       -0.26154703 -0.2158649 0.11512581 0.22004016
000240 91 0f cb 3e fa 4a ea bc cf ed 9a be 8e 44 d0 bd
       0.39660314 -0.028600205 -0.3025956 -0.10169326
000250 ac 3a fc bd a4 52 31 3d
       -0.12315878 0.043291703

net.0.bias f4 [6]
000000 f7 a3 77 3e 90 7a 29 be 20 63 9a 3e 55 7c 1f 3e
       0.24183641 -0.1655066 0.3015375 0.15574773
000010 21 50 bc 3e 69 44 22 3e
       0.36779884 0.15846409

net.3.weight f4 [6, 6, 5, 5]
000000 75 3d 25 3d ee 80 d7 3c d9 ec 0c 3e c4 82 91 3e
       0.040341813 0.026306596 0.13762225 0.2842008
000010 13 58 d0 3d ea 0f 4b 3d 42 03 62 3e 9c 6d a2 3e
       0.10173049 0.049575724 0.22071555 0.3172425
000020 ee 98 a2 bd c0 28 8e 3d 99 0d 7e be fd 07 28 3e
       -0.07939325 0.06941366 -0.24809875 0.16409297
000030 5d 3a f7 3c 94 28 83 be 4b d3 6f be fa 52 ae 3d
       0.030179197 -0.25616896 -0.23420446 0.0851192
000040 64 8b 9f bd 7a c7 8b 3d 50 b9 71 be 17 66 86 3b
       -0.077902585 0.068251565 -0.23605847 0.0041015255
000050 e7 ae a3 be b0 e9 b1 bc 51 d4 21 3d ed 28 2c bd
       -0.31969377 -0.021717876 0.03950912 -0.042031217
000060 78 87 32 be 97 94 30 bd 6b 82 e5 3d 87 07 88 be
       -0.1743449 -0.043110456 0.11206516 -0.26568243
000070 3e a9 91 3d 53 a4 21 3d fb 97 2c be fc 52 f4 bd
       0.071123585 0.039463352 -0.16854851 -0.119298905
000080 e5 0e 37 be bf ed 5c 3e 4d 6e e3 bd 8e df 9b be
       -0.17876776 0.21575068 -0.111050226 -0.30443996
000090 7f a7 d0 3d b0 12 53 3e 02 7b 49 bd 37 14 6f 3e
       0.10188197 0.20612597 -0.049189575 0.23347555
0000a0 46 d6 9e bc 9a 36 6d bd 34 0e 41 3d 62 51 20 3c
       -0.019389283 -0.0579134 0.047132686 0.009785028
0000b0 67 63 71 3e 59 55 39 3e 84 5a 82 3e 5d 52 c7 be
       0.23573075 0.18098964 0.25459683 -0.38930026
0000c0 6b bf 2a 3e a0 7d 1a be af 74 55 3e 0f 75 91 3d
       0.16674583 -0.15086985 0.20845293 0.07102405
0000d0 3a d5 20 bd 4f 1b 3a bd 9e 56 b7 bc b5 aa dc be
       -0.03926585 -0.0454362 -0.02238017 -0.4309899
0000e0 6d fb f8 3d f0 ea c0 bd d5 df 8e bd d9 6f b7 bd
       0.12157331 -0.09419811 -0.06976286 -0.0895688
0000f0 49 b8 1c be fc 27 86 3b f6 ea 8f 3c 5e 7b 4d 3e
       -0.15304674 0.004094122 0.017568093 0.20066592
000100 79 d8 9d 3e 67 67 00 be 5d 97 cc be 4e 7b 8d 3c
       0.30829218 -0.12539445 -0.3995923 0.01727071
000110 a5 7b 8b 3e d1 81 22 3e 59 66 1b be 8d 9c 68 bd
       0.2724277 0.15869834 -0.15175761 -0.056789923
000120 35 49 e4 bc 51 fa 65 3e 69 2a 61 bd 05 ce c9 3d
       -0.02786694 0.2245877 -0.054972086 0.09853748
000130 42 37 f7 3d c6 32 01 be bd ad 91 3e c8 8f 62 bc
       0.120710865 -0.12617025 0.28452864 -0.013828225
000140 95 4f 8b bd aa ba 89 bc a2 d3 44 3d 0a 1d 0d be
       -0.068022884 -0.016812641 0.04805339 -0.13780609
000150 64 05 0d be d6 e0 a6 3e 43 ca 02 be cf 7d 5e 3c
       -0.13771588 0.3259341 -0.12772469 0.0135798
000160 9e 88 bb bc 4b 2c ce bd 24 dd 4f be 82 47 1d 3c
       -0.022892293 -0.10067042 -0.20299202 0.009599568
000170 16 c2 4f be 8d a2 c2 bd 11 55 78 3d 26 c8 ba 3d
       -0.20288882 -0.0950366 0.060628 0.091202065
000180 22 a2 da bd 38 14 5a 3e f3 2d 61 3e 3a 61 23 bd
       -0.10675456 0.21296775 0.21990184 -0.039887644
000190 89 cd 84 3e 4a d9 22 be 61 e7 49 3d f7 f3 08 be
       0.2593806 -0.15903202 0.049292926 -0.13374315
0001a0 a0 b3 ed bd f2 9a 7a 3c d7 ce 47 be 62 f3 07 3e
       -0.116065264 0.015295731 -0.19512497 0.13276437
0001b0 0d f4 83 be b4 eb 9c 3c 1b 89 6f 3b 0b b2 7d be
       -0.25772133 0.01915536 0.0036550227 -0.24774949
0001c0 59 62 d0 3d 4d ba 7e 3d 1c 1e 05 3e 5f 90 e8 bd
       0.10175008 0.06218939 0.12999767 -0.113556616
0001d0 d8 10 4f 3e 21 b9 32 bd cb a5 d3 3d 15 de 6d 3d
       0.20221269 -0.043633584 0.10334357 0.058073122
0001e0 96 be c5 be 04 77 a6 3d 66 ff 5d 3e 92 88 7a be
       -0.38621968 0.08128169 0.21679458 -0.2446616
0001f0 82 20 00 be 5f f8 67 3e 04 63 d3 3d fa aa a2 3d
       -0.12512401 0.2265334 0.1032162 0.079427674
000200 3b d6 cd 3d 2a 79 86 bd cf d0 f1 3b b2 b6 61 be
       0.10050627 -0.06566079 0.0073796283 -0.22042349
000210 69 81 0b be b8 f8 26 3e 1e d6 0c 3e 10 b0 9b be
       -0.13623585 0.16305816 0.13753554 -0.30407763
000220 9a 36 4c bc 80 1f 1b bb 3e c8 84 3d 6e a9 16 bc
       -0.01246419 -0.0023669899 0.06483506 -0.009195669
000230 a1 a4 06 3e a4 7a 91 bd e4 11 df 3d c1 8f 0d bc
       0.13148738 -0.0710347 0.10892084 -0.008640231
000240 15 d2 67 3e 14 97 ba bc bb 2a 2a 3e 5a 45 9a bd
       0.22638734 -0.022777118 0.16617863 -0.07532759
000250 b7 eb 89 3e a8 0c e7 3d 88 84 f5 3d e3 1c 91 be
       0.2693765 0.11281711 0.11988169 -0.2834235
000260 02 6d 81 bd 5f 4c 55 3d 5d 31 84 bc 1f bf e9 3c
       -0.0631962 0.052074786 -0.01613682 0.028533516
000270 37 18 36 be 86 80 b3 3d 4c 29 f9 3c b7 f0 92 bd
       -0.17782675 0.08764748 0.0304152 -0.07174819
000280 68 34 1f be 7b 0d 00 bd 11 20 a1 3c a8 98 c2 3d
       -0.15547335 -0.031262856 0.01966861 0.09501773
000290 90 00 56 3d dd 19 05 3e f4 40 97 3e ca 53 4c bd
       0.05224663 0.12998147 0.29541743 -0.049884595
0002a0 8d a2 40 bc 70 62 14 be ca bb fa 3d 69 c4 a5 bd
       -0.011757505 -0.14490676 0.12242849 -0.08094103
0002b0 3e 6c c3 bd 52 6e 92 3e 8a f3 80 be bd 6b 00 be
       -0.0954213 0.28599793 -0.25185806 -0.12541099
0002c0 96 1c b9 3c 87 7a 01 3e b1 fe 5a be 64 20 97 3d
       0.022596639 0.12644397 -0.2138622 0.07379225
0002d0 3e 0b aa 3e 88 e5 c7 bd 75 b0 4b 3e 06 43 50 3c
       0.33211702 -0.097605765 0.19891532 0.012711292
0002e0 80 26 88 3e 29 5f 83 3d 1c 4c a4 3e b9 34 f2 3d
       0.26591873 0.06414635 0.32089317 0.11826462
0002f0 02 6a e7 bd fe d1 c6 3e b7 6a c1 3d 85 c8 b2 3c
       -0.11299516 0.38832086 0.09444182 0.02182413
000300 b1 3c e4 3d c1 90 b8 bd d6 6c 80 3d ef f3 eb 3d
       0.111443885 -0.090119846 0.06270759 0.11521136
000310 5b 14 15 3e 60 76 7a 3e f6 44 0f bd 2d 3e 39 3e
       0.14558546 0.24459219 -0.034977876 0.18090124
000320 bb d1 26 3e b9 34 2c 3e 6c ba 61 be 21 66 c5 be
       0.16290943 0.16816987 -0.2204377 -0.3855448
000330 94 0c 8a b9 30 9f 78 be d3 15 3e 3d 8e d0 8d 3d
       -0.00026330783 -0.24279475 0.046407532 0.06924544
000340 b2 54 3d 3e 26 a6 0a 3e f6 e1 16 3e b2 fb bf 3c
       0.1848934 0.13539943 0.14734635 0.023435447
000350 49 c1 7a bd df ef 65 3e 1c 76 af 3d 1e c0 1a 3e
       -0.061219487 0.22454785 0.085674495 0.1511235
000360 bf 28 53 bb 6a 1a a6 bd 5a 6d 17 be 41 48 65 be
       -0.0032220331 -0.08110507 -0.14787808 -0.22390844
000370 0f cb 8f 3d ee 89 a9 bd 43 83 4e be 53 22 a1 bc
       0.07021152 -0.08278261 -0.2016726 -0.019669687
000380 cf 76 a2 3b 8c 8e 89 3e 02 d7 75 be 6a b4 8e bd
       0.0049580107 0.26866567 -0.240078 -0.06968005
000390 a7 62 34 3d cf f7 ca 3d e3 f9 0a be fa 7d d9 bc
       0.044039395 0.09910547 -0.13571887 -0.026549328
0003a0 d2 d5 b8 bd 8c 10 4d 3d 28 52 d0 3d 79 df da 3c
       -0.09025158 0.05006461 0.1017192 0.026717888
0003b0 a9 4b 0e be 1b 5f 37 3d 24 9d 3b be d7 42 3d be
       -0.1389605 0.044768434 -0.18321663 -0.18482529
0003c0 dc 83 42 3e 6f 5d 91 3d be 2b 85 be 78 e7 50 bd
       0.18995613 0.07097899 -0.26009935 -0.051001996
0003d0 bb 44 8b be 19 76 96 be 43 e1 46 be b5 c7 71 be
       -0.27200875 -0.29386976 -0.19421868 -0.23611338
0003e0 81 a6 3b 3d a8 57 54 3e e2 27 85 3c eb b3 27 3d
       0.045813087 0.20736563 0.01625437 0.040943068
0003f0 75 62 6d 3e a7 0a 00 be 88 34 ca 3c 48 7b 49 3e
       0.2318209 -0.12504064 0.024683252 0.19675934

net.3.bias f4 [6]
000000 cf b7 84 3c c7 1c d0 bd 97 77 8f 3d 0b 94 83 3d
       0.016200928 -0.10161739 0.07005232 0.06424721
000010 86 4e 04 3d 91 bc 1a be
       0.03230145 -0.15110995

net.7.weight f4 [50, 96]
000000 b9 59 39 3d e8 e0 86 3d 06 5a af 3c b5 3e e9 bc
       0.04525158 0.06585866 0.021405231 -0.028472284
000010 86 fe 34 3d 19 05 a4 3d 3f 4f be bd 81 9f 7d bc
       0.044188045 0.08008785 -0.09292459 -0.015479923
000020 cb 14 b1 bc c6 86 48 3c 15 eb 90 bd 78 de 73 bc
       -0.02161636 0.012239164 -0.07076088 -0.014884584
000030 1a 9b 3a bd 14 5a e0 bd 3f 88 49 3d 5c 17 bd 3c
       -0.045558073 -0.10954681 0.0492022 0.023082428
000040 41 5f e5 3c 9c b0 10 be b6 04 26 bd 1d b8 bf bc
       0.027999522 -0.14129871 -0.040531836 -0.023403222
000050 b3 77 12 bd 8d 34 41 3c 53 8b e8 3c fc 1a ed bc
       -0.035758685 0.011792314 0.028386747 -0.028943531
000060 f9 7a 64 bd f5 9d bd bd 66 1a 0d be dc e2 0f 3d
       -0.05578134 -0.092586435 -0.13779601 0.03512846
000070 49 30 ef 3c fd 82 8a bd 74 b0 4f bd 85 34 ec bc
       0.029197829 -0.06763265 -0.05070539 -0.028833637
000080 2b d9 8d bd e1 65 b0 bd 59 76 27 3d 3e 43 3a bd
       -0.06926187 -0.08613182 0.04088435 -0.045474283
000090 f5 2a 8b bd 92 2e 25 3d 9c 2a 4b bd 4a 23 f7 3b
       -0.06795303 0.040327616 -0.049601182 0.0075420486
0000a0 b3 29 c7 bd a8 5c a5 3a 59 e3 06 bd 81 0a 28 3d
       -0.0972475 0.0012616115 -0.03293166 0.041025642
0000b0 3b 56 90 bd c4 2d 45 3c 4d 06 30 3d f0 c8 91 bd
       -0.07047697 0.012034837 0.04297476 -0.07118404
0000c0 8b b2 1f bd 57 76 6e 3d 93 bf 61 3c f5 46 84 3d
       -0.03898863 0.058218326 0.013778585 0.064588465
0000d0 d2 82 61 3d df 8d 63 bc bb b7 20 3d 43 1e 5b 3d
       0.0550564 -0.013888805 0.03923772 0.053495657
0000e0 94 bb 17 bb 32 eb 82 bd 20 64 78 bc b4 e6 1c bd
       -0.0023152577 -0.06392516 -0.01516059 -0.038305953
0000f0 6b 79 27 3d be c1 00 be 5f da c1 3d 8e ad 5e bc
       0.040887278 -0.12573907 0.09465479 -0.013591183
000100 9a 98 53 3c 6b 07 88 bd 1b 94 2d bd 9b d5 f5 bd
       0.012914801 -0.0664204 -0.042377573 -0.12003633
000110 1d 25 ca bd 79 b7 ef bc b1 15 80 3d e3 3a 4a bd
       -0.0987036 -0.029262291 0.06254137 -0.049372565
000120 2f a5 10 3c 4f 93 4e bd 77 61 4c 3d cd 31 b4 bd
       0.008828445 -0.050433453 0.049897637 -0.08798561
000130 21 ba aa bd 9b e3 bd bd a3 cb bb 3d 37 ee b4 bc
       -0.083362825 -0.09271928 0.091697 -0.022086246
000140 77 79 01 3d 1f f6 cc bc ef fc af bc 2b 24 84 3d
       0.03160998 -0.025019703 -0.021482913 0.06452211
000150 7c bf 7a bd 55 11 91 bd 69 77 8d 3d e7 85 26 bd
       -0.06121777 -0.07083384 0.06907541 -0.040655043
000160 f2 4c d4 bc 05 91 5e bd 29 79 17 3d bd 4a 59 bc
       -0.025915597 -0.05433752 0.03698078 -0.013262448
000170 b0 c9 4b bd 81 b1 df bd a8 75 a5 bd d5 70 31 bc
       -0.04975289 -0.10922528 -0.08079082 -0.010830124
000180 27 74 5b ba b9 b3 07 3c f7 d8 d9 bd b4 9f 2d bd
       -0.0008371495 0.008282595 -0.10637086 -0.042388633
000190 15 62 1b bd a7 af c8 bd dc 39 de bd 01 50 5d bd
       -0.037935335 -0.09799128 -0.108508795 -0.054031376
0001a0 42 5d 30 bd d0 c4 e6 bb 7c 12 8e 3c 68 26 7f 3d
       -0.043057688 -0.007042505 0.017342798 0.062292486
0001b0 2d 66 31 bd f2 21 c5 bd f0 4d 66 3d 73 44 6c 3c
       -0.043310333 -0.09625615 0.05622667 0.014420616
0001c0 b6 64 ed b9 41 73 ae bd 2a 99 01 bd 88 e5 66 3d
       -0.00045279198 -0.08518077 -0.03164021 0.05637124
0001d0 03 5d 3f bd 32 1f 9e 3d 4b 3a 8a 3c c1 1c 87 bc
       -0.046719562 0.07720794 0.0168735 -0.016493203
0001e0 69 59 af bd de 61 34 bd 3f f7 97 3d 62 0a 48 3d
       -0.085619755 -0.044038646 0.07420205 0.048838027
0001f0 68 57 cf 3b f1 11 5b 3c 27 96 d2 bd ff db db bd
       0.0063275583 0.013370977 -0.102825455 -0.1073532
000200 fc f3 03 3d 66 c1 2f bd c0 49 20 3a 39 2b 79 bd
       0.032215104 -0.04290905 0.0006114505 -0.060832236
000210 a8 fd 0e 3d a4 1c 8d 3d c1 67 91 3c 6f 79 87 3d
       0.034909874 0.068902284 0.017749669 0.066149585
000220 84 11 f4 bb 4c 11 a2 3c cc 8a 39 bd fe 8f c0 bb
       -0.007448377 0.019783638 -0.045298383 -0.00587654
000230 89 40 a0 bd f3 ae 2f bd a1 b2 26 3d b8 ec 33 3d
       -0.07824809 -0.042891454 0.040697698 0.043926924
000240 e7 46 27 bd a8 3d 32 bd 11 cd d5 3c a6 f0 01 3c
       -0.040839102 -0.04351583 0.02609876 0.00793091
000250 ec f0 98 bd f1 53 a9 bd 3b e3 50 bc c9 26 4f 3d
       -0.07467827 -0.08267964 -0.012749488 0.050574098
000260 07 eb 4f 3d 04 93 ff bc d7 f1 45 3c 52 be f6 bd
       0.05076125 -0.031198032 0.012081585 -0.120480195
000270 77 8c ee bc bd 02 7c 3c ef 04 cf bd fb 8d 93 bd
       -0.029119713 0.015381512 -0.10108363 -0.07204815
000280 1c 53 6b bc da 70 2f bd c1 40 81 bd 3c 2a 0f bc
       -0.014363077 -0.042832233 -0.06311179 -0.008738097
000290 b4 05 aa 3c eb bb be bc 9b e1 69 bb 24 f8 b1 bd
       0.020754673 -0.023282966 -0.003568745 -0.08689907
0002a0 b4 7d 2d bd 49 8d 27 3d 31 c0 81 bd 6c ba a9 3c
       -0.042356208 0.040906224 -0.06335486 0.020718776
0002b0 70 2e a7 bc d7 2a b3 3a c0 9a 9f bd 5a fb f5 3c
       -0.020407885 0.0013669383 -0.07793188 0.03002708
0002c0 f8 0b cf bc b7 6b b4 3c f7 43 fb bc be 30 3f 3d
       -0.025274262 0.022024019 -0.030672057 0.046677344
0002d0 dd 67 09 bd e3 2c 98 bd 40 18 7d bd 06 94 30 3c
       -0.033546317 -0.074304365 -0.061790705 0.010777479
0002e0 89 88 12 bd 9c 3c 7a bd ac 3a 88 3b 3d f7 fb bc
       -0.03577474 -0.061092958 0.004157385 -0.03075754
0002f0 4a d5 41 bd 20 2e 9a bb cd b9 58 3c 36 b5 e1 3c
       -0.04732255 -0.0047052056 0.013227892 0.027552228
000300 cd a3 28 be 89 36 77 3e 81 bc f0 bd ac dc 1d bc
       -0.16468735 0.24141897 -0.11754704 -0.009635132
000310 5f 32 7a bd 4f c5 2b 3d 1d 2a b2 3d 2f bb 20 bd
       -0.061083194 0.041936215 0.08699439 -0.039241012
000320 55 d3 3d 3c 73 c7 a2 ba dd 93 f2 bd 56 15 ad 3d
       0.01158603 -0.001241906 -0.11844609 0.08451335
000330 e9 b4 65 3e 2d 72 88 3d 4f ac d3 bc 45 b7 51 bd
       0.22432293 0.06662402 -0.025839 -0.05120017
000340 91 8f 87 be 07 58 ea 3c b6 2d 17 3d dd 94 f3 bd
       -0.2647672 0.028606428 0.036908828 -0.11893628
000350 2e 3e 4b 3e 8f f0 f7 bd 52 bc fb 3d 4a bb 84 bd
       0.19847938 -0.1210643 0.122917786 -0.06481035
000360 8c 96 32 3e d7 79 63 be ad 51 1a 3e 70 dc 8b bd
       0.17440242 -0.22214447 0.1507022 -0.068291545
000370 2a bf 05 be dd 96 26 3e 4c 32 48 be dd 23 11 be
       -0.13061205 0.16268487 -0.19550437 -0.14173837
000380 25 cc 11 3d d0 bf a3 bc 31 35 69 3e 2a 59 4c 3c
       0.035595078 -0.019988924 0.22774197 0.01247243
000390 1a 6c b7 bd 56 9e 84 3e 8e 01 f5 bd ce 49 e1 3d
       -0.089561656 0.2590205 -0.11963187 0.11000405
0003a0 37 a9 4f 3b 2e 8a 20 3d a3 6f 16 bc 47 92 25 bd
       0.0031686553 0.03919428 -0.00918189 -0.040422704
0003b0 72 63 67 3b fe 34 d9 bd 73 f2 18 bd f8 67 00 3d
       0.0035307077 -0.106058106 -0.037340593 0.031349152
0003c0 c2 5e 00 3e 4a cf 07 be 3a 4b a1 3d 1f 68 73 be
       0.12536147 -0.13262668 0.078756765 -0.23770188
0003d0 7c 97 26 3b b8 0a 07 3e 10 42 2d 3e 7e b5 3c bd
       0.0025419882 0.13187683 0.16919732 -0.046071522
0003e0 c7 b9 89 3d 42 2b 1c bd 02 a8 d7 bc 91 50 20 bd
       0.06724887 -0.03812719 -0.02632523 -0.039139334
0003f0 3c 4c 2b 3e f3 d6 51 bd 71 19 b7 bd d2 bb d6 bc
       0.167283 -0.051230382 -0.089403994 -0.026212607

net.7.bias f4 [50]
000000 61 41 d2 bd d9 7f 90 bd ef 3a ef 3d 18 2a 4a bd
       -0.10266376 -0.07055635 0.116811626 -0.04935655
000010 62 7b f1 3c 7b 46 57 bd 9f 7d 48 be 2e a2 db 3d
       0.029477779 -0.05255745 -0.1957917 0.10724293
000020 f9 f8 23 3c e3 65 d5 3d eb 0f 6d bb 4a 8c a1 3a
       0.01000809 0.10419824 -0.0036172818 0.0012325135
000030 f8 03 98 bd e1 86 85 bd ff f9 d5 bd ea 5a e0 bd
       -0.07422632 -0.06519867 -0.104480736 -0.109548405
000040 5f 13 9a 3b 74 67 39 3d cd 12 15 bc 61 2d da 3d
       0.0047020162 0.045264676 -0.009098721 0.106531866
000050 8c 61 3e bc 66 22 07 3d ea c7 20 bd 70 62 f5 3d
       -0.011619937 0.03299179 -0.039253153 0.11981666
000060 fc d6 b4 bd 3f 21 65 3d dd e9 2b bd e8 93 9d bd
       -0.088300675 0.05593991 -0.041971076 -0.076942265
000070 dd b4 63 3c 2b 8e 06 3e 2c 68 6e be a8 57 58 bc
       0.013898102 0.1314017 -0.23281926 -0.013204493
000080 66 d0 8f 3d e5 08 d9 bd fb d0 f6 3d a8 3d 7a 3d
       0.07022171 -0.105973996 0.120515786 0.061093956
000090 5b 3a d4 3d f5 df 6a bc c1 ec 0c bd 09 d8 b9 3d
       0.10362693 -0.014335622 -0.034405474 0.090744086
0000a0 5e 91 f6 bc 97 aa b4 bc 76 40 93 3b 4b 26 db bd
       -0.030098613 -0.022054 0.0044937683 -0.10700663
0000b0 bc bb 92 3c 36 eb c4 3c 89 3d 9f 3d 0b 42 5b 3e
       0.017911784 0.024037939 0.07775409 0.21411912
0000c0 30 c5 43 bd 12 57 18 3e
       -0.047795475 0.14876965

net.9.weight f4 [10, 50]
000000 b3 6d 07 be 4c 0a be bd a7 c8 33 3e 8c cb a2 3c
       -0.1322544 -0.09279308 0.17557012 0.01987245
000010 fd 81 96 3d 25 dc ae be 76 b8 80 3c 71 31 6e 3d
       0.07349012 -0.34152332 0.015712958 0.05815262
000020 12 f8 37 be 8e 35 7d 3d c5 85 3e bd 12 74 e8 bd
       -0.17965725 0.06181865 -0.04651429 -0.11350264
000030 31 dd b3 be 68 1d ee 3d fb dd f6 bd 90 4e 51 3c
       -0.35129693 0.116267025 -0.12054058 0.012775078
000040 ff 26 8c bd 34 ad 3e 3e ba ac 96 3d 15 a9 0f be
       -0.068433754 0.18620759 0.07357164 -0.14029343
000050 2c 4c 91 bc 9e a1 bc be 77 78 a8 bd de d2 5b be
       -0.017736517 -0.36842054 -0.08226102 -0.21467158
000060 c1 bb a9 3d 41 f7 f7 3d d2 bf 11 be 25 20 da 3b
       0.08287764 0.12107707 -0.1423333 0.006656664
000070 2e 56 d7 be db 75 84 3e 4d 36 d2 be 01 2e 2e bf
       -0.42057937 0.25871167 -0.41057053 -0.68038946
000080 04 1f bf 3d 1d 14 79 3c 8d 6d 70 3e d8 67 8f be
       0.09332088 0.015202549 0.2347929 -0.28008914
000090 8b a7 2e 3e 60 97 50 be a3 ce 6b bd e1 d8 02 be
       0.170561 -0.20370245 -0.05757011 -0.12778045
0000a0 33 11 de bc 5c 30 1e bd e4 82 a3 be 5b 4d 8a 3d
       -0.02710781 -0.038620338 -0.319358 0.06753036
0000b0 b5 91 c8 bd c2 1f 3f 3e 90 35 e1 3d 40 9d 84 3e
       -0.097934164 0.18664458 0.10996544 0.25901222
0000c0 da 43 84 be 28 6c 46 be 65 c3 b2 3d ca c4 d0 bc
       -0.25833017 -0.19377196 0.08728675 -0.025484461
0000d0 cf 24 28 be d8 a4 1c be 99 32 81 3e 61 99 15 bd
       -0.16420291 -0.15297258 0.25233915 -0.036523227
0000e0 74 d5 4b 3d 8a 49 2f be 78 f6 fc bd 0e 40 62 be
       0.04976411 -0.17117897 -0.12351698 -0.22094747
0000f0 c8 4d 01 3e 0b 10 9e bd 11 c6 ab 3e 0a 1e 49 3d
       0.12627327 -0.07717904 0.3354955 0.049100913
000100 87 76 3b 3e c6 ab da be 2b 50 ad be 1e 5f 8e 3e
       0.18306933 -0.42709178 -0.33850226 0.27806944
000110 d3 2b 45 bd 85 28 ae 3d 67 52 cd bd 56 fe 0a 3e
       -0.048137497 0.08503822 -0.100254826 0.13573584
000120 5e ec 7c be b5 f5 b1 be c3 3d 2e bd 29 3f 6d be
       -0.24699542 -0.34757772 -0.04253937 -0.23168625
000130 fe d9 23 be 53 3f cd 3a 75 20 02 3e 61 0e 9e bc
       -0.16001126 0.0015659131 0.12707694 -0.019293966
000140 bb a0 a2 bc 68 48 81 bd 8b 03 63 be e3 10 da 3d
       -0.019852033 -0.063126385 -0.2216932 0.10647752
000150 8a b2 24 bd 65 21 a4 3d 7e 65 ca bd 65 fd 50 3d
       -0.04020933 0.08014182 -0.09882639 0.051022906
000160 1d f7 4f be e7 a3 1a 3e 58 78 9d bd 0c 82 fd 3d
       -0.2030911 0.15101586 -0.076889694 0.1237832
000170 77 6c 21 be e2 20 53 3d 26 90 a6 3c 41 67 3f 3e
       -0.15764032 0.05154503 0.020332407 0.18691732
000180 32 4d 1e 3f 9b 21 b4 bd 28 7b a8 3e 5e 9e 9e 3d
       0.6183654 -0.08795472 0.3290646 0.0774505
000190 76 ba e4 bd 49 fd 7b 3c c0 92 6c 3d 69 5a 5e 3e
       -0.11168377 0.015380212 0.05775714 0.21714176
0001a0 e4 71 1c be 8f d3 2f 3d 83 ca 59 be 59 5f 10 3e
       -0.15277821 0.042926367 -0.21268658 0.14098872
0001b0 8e 7f 5b 3e df bb c7 3d 67 2c 85 3e 11 b9 47 bd
       0.21435377 0.097526304 0.2601044 -0.048760477
0001c0 87 76 c1 3c eb 62 f8 bd c6 df 0f be 28 a8 0e be
       0.023616089 -0.12128242 -0.14050207 -0.13931334
0001d0 92 39 65 bd a9 3a 65 be 99 7d 66 3e 9d 9b cc bd
       -0.055963106 -0.22385658 0.22508849 -0.099906184
0001e0 d5 82 29 bc db 43 d6 bd 78 3e 97 be 57 ab 8c be
       -0.010346134 -0.10462161 -0.29539847 -0.27474472
0001f0 01 92 56 bc 7d 1d 50 be 36 74 a1 3e 24 c0 b2 bd
       -0.0130963335 -0.20323749 0.31533974 -0.08728054
000200 2d 57 2f 3d 76 ff 52 3e 1d a2 69 3c c9 03 6c be
       0.042807747 0.20605263 0.014259842 -0.23048319
000210 64 1d 01 3d 72 a8 bd bd bd 23 fc bb f1 43 25 be
       0.03152217 -0.09260644 -0.00769469 -0.16139199
000220 96 00 87 bd 16 be 2f bd 07 99 9e bd 24 b8 3b 3e
       -0.06591909 -0.04290589 -0.077440314 0.18331963
000230 67 81 cb 3c a6 16 7d 3e 08 3f e1 be 98 9b 01 be
       0.024841977 0.24715671 -0.43993402 -0.1265701
000240 a2 e1 24 3d f9 0f 78 3d b6 54 1f bf 0f f7 97 bd
       0.040254243 0.060562108 -0.62238634 -0.074201696
000250 97 7e 71 3e 52 b3 12 be c6 97 5e bc 77 84 71 bb
       0.23583446 -0.14326218 -0.01358599 -0.0036852637
000260 0a c2 ab 3d eb 92 8d be ed f2 8a be 9a f0 41 3e
       0.083866194 -0.27651152 -0.27138463 0.18939438
000270 f3 9c 02 bf 7f 2f 69 be 81 1e 87 3e 65 a4 94 3d
       -0.51020736 -0.22772025 0.2639046 0.07257918
000280 8b 23 dd 3d 02 d4 98 bd 90 51 d9 3d 42 c7 e6 bd
       0.10797795 -0.07462312 0.1061126 -0.11268474
000290 41 35 a4 bd fc 7c 89 3d 23 7c eb 3d f3 20 b0 3d
       -0.0801797 0.06713292 0.114982866 0.086000346
0002a0 1d 66 10 be bf 48 8f 3d b5 b8 b2 bc 2c 22 cc bd
       -0.14101453 0.06996297 -0.02181659 -0.09967455
0002b0 29 77 3a be e5 94 8c 3e 47 b0 23 bd 89 49 85 be
       -0.18209518 0.27457348 -0.039963033 -0.26032665
0002c0 12 2b e0 3c 53 c8 8d bd b4 47 a7 3d 55 a6 18 bd
       0.027364288 -0.069229744 0.08167973 -0.037268
0002d0 08 c9 2a bd 60 47 f2 3d d9 f0 32 3e db ae 41 3d
       -0.041695625 0.1183002 0.17474689 0.047285896
0002e0 a9 35 a3 bd 4d b3 d5 3d 5a 62 93 be 7f c8 b9 bc
       -0.07969219 0.104345895 -0.28785974 -0.022678612
0002f0 eb 5e 88 3e 13 a7 2e 3d 33 21 1f be b9 9b 86 be
       0.26634917 0.042639803 -0.15540008 -0.26290682
000300 dd ed c2 3e 8c ef b4 be b0 e2 91 bd d9 71 98 be
       0.380721 -0.3533901 -0.07123315 -0.2977436
000310 f8 4c 1c bf 84 57 38 3e be 1c 4e 3d 72 9e 45 3d
       -0.61054945 0.18002135 0.05032038 0.04824681
000320 1d 32 8d 3c b8 04 b6 bd 39 db 46 be 62 ac 88 3e
       0.01723581 -0.08887619 -0.19419564 0.26694018
000330 04 aa 90 3e de 59 2a 3e 8b c9 93 3e 9b 02 a0 bd
       0.28254712 0.16635844 0.28864703 -0.07812997
000340 94 89 75 3e 4e 48 f4 bb d9 fe b2 3b 4c 7a e3 bd
       0.23978263 -0.0074549085 0.005462509 -0.11107311
000350 d1 59 a1 3e 07 3e 9a 3d 5a b8 34 3c 9d 32 45 bd
       0.31513837 0.07531362 0.011030281 -0.04814397
000360 62 0c c7 bd fe 1f 82 be c3 83 25 be fc bd be bd
       -0.09719159 -0.25415033 -0.16163544 -0.093135804
000370 1e a1 e3 3d c1 bb ec 3d 41 d3 7a 3e ee 09 e7 3d
       0.11114715 0.11559249 0.2449465 0.11281191
000380 b4 cf e0 bc f9 f8 eb bd 65 f4 99 3d 46 f2 4f 3d
       -0.02744279 -0.11522097 0.07517318 0.05076816
000390 49 58 9f be 12 da e4 be a4 19 2e 3e 19 c5 0b bd
       -0.31122044 -0.44697624 0.17001969 -0.034123514
0003a0 ff 79 ce 3d 96 30 c5 3d c0 34 d7 3d b4 66 a4 bd
       0.10081863 0.09628408 0.10508108 -0.080274016
0003b0 f8 18 31 3d 02 e5 4e bd 55 bf 9e be 42 5f 08 be
       0.043236703 -0.050511368 -0.3100535 -0.13317588
0003c0 e7 ed bf 3c 74 b2 c5 bd 0f dd 31 3e 5c de 9e 3e
       0.02342887 -0.09653178 0.17369483 0.31029022
0003d0 09 96 72 bd 16 11 93 3e 61 4a a3 3c c0 65 d9 be
       -0.059225116 0.28723973 0.019932928 -0.42460442
0003e0 cd 8e a8 be 92 7b 5e be d2 35 9a 3c a3 25 bc 3a
       -0.32921448 -0.21726826 0.018824492 0.0014354478
0003f0 23 a7 e9 bd e0 44 a0 bc cb 77 0d be eb c2 2d 3e
       -0.11408832 -0.019564092 -0.13815229 0.16968887

net.9.bias f4 [10]
000000 a6 d9 a0 3b bb de 15 bd 44 c5 82 bd 11 05 0d 3e
       0.004908758 -0.036589365 -0.06385282 0.13771464
000010 6c 28 03 be ee c0 c3 3d 90 fb d1 bd 2f 86 43 3c
       -0.12808388 0.09558283 -0.1025306 0.011933847
000020 3f 7c d5 bd c3 f8 00 3d
       -0.10424089 0.031487238
